paper_pretrained_models/3DeepFace/best_model.pth.tar (torch_old, 943624 bytes, 16 tensors)

module.convlayer_000.weight f4 [80, 40, 2, 2, 2]
000000 e0 d5 17 3d 87 62 97 3d ae a9 ea 3c 05 2e 5a 3e
       0.0370692 0.073918395 0.028645363 0.21306618
000010 5f 28 90 3d 48 27 58 3d 8d 9a 36 3c 4e 16 77 3d
       0.0703895 0.052771837 0.011145246 0.060324006
000020 00 c0 55 3d ae 49 5e 3a ce 5d af bd 9e fb f6 bd
       0.05218506 0.0008479607 -0.08562814 -0.12059711
000030 44 b0 ec bb b0 53 25 bd 3c f0 1d be cb 28 ea bd
       -0.007223161 -0.040363014 -0.15423673 -0.11433562
000040 f5 7e 77 3c 38 9c 42 3d 30 e4 1d bc 49 09 eb 3d
       0.0151059525 0.047512263 -0.009636924 0.114763804
000050 e6 3d f5 ba a5 04 df 3c ab 4c 01 3d e8 de 21 3e
       -0.0018710464 0.027223894 0.031567257 0.15807688
000060 ed 8b 06 bc c5 92 6b bd ca 34 e0 3c d3 e2 dd 3a
       -0.008212072 -0.057513017 0.027368922 0.0016928561
000070 3d 70 b1 bc 6d de 26 bd 2b d0 dc 3d bb a0 32 3d
       -0.021659965 -0.040739466 0.107818924 0.043610316
000080 67 82 bc 3d f8 73 dc 3d 52 95 0d 3e c3 0e 09 3e
       0.0920456 0.10764307 0.13826492 0.13384537
000090 f4 7e 0c 3e 8b 13 10 3e d1 14 91 3e ba 5f ab 3e
       0.13720304 0.14069955 0.28336194 0.3347147
0000a0 9b 2b c8 bb 8c df 22 bd b1 dc 09 bd 1a 10 04 bd
       -0.006108714 -0.039763972 -0.033657733 -0.03224192
0000b0 05 06 11 bd a9 fa f9 bd 62 b3 6f bd 87 ff b0 bb
       -0.03540613 -0.12206013 -0.058520682 -0.005401555
0000c0 b0 71 00 3e f0 e9 5e 3e 0b 90 8c 3e 67 5f 5a 3e
       0.12543368 0.21768928 0.27453646 0.21325456
0000d0 81 e6 12 3e 0f ee 5f 3e ee 6b 4e 3e a1 9a c4 3e
       0.14345743 0.21868156 0.2015836 0.38399222
0000e0 de 45 c0 bc 13 3c 80 3c ae f6 f8 3b 73 ce 83 3c
       -0.023470815 0.015653646 0.007597766 0.016089654
0000f0 f7 18 9c 3d d1 32 14 3e c2 85 cc 3d e4 5f a9 3d
       0.07621949 0.1447251 0.0998645 0.08270243
000100 68 1c 07 bc 13 38 18 3c 6a 6c da 3b a9 80 88 bd
       -0.008246519 0.009290713 0.006665756 -0.06665165
000110 b2 66 98 bd fc 42 a3 bd b5 a1 fc bd 8f 03 84 bd
       -0.074414626 -0.07971761 -0.12335531 -0.06445991
000120 41 66 9a 3d f4 be 9b 3b bb 64 2c 3e dd 9d f4 3d
       0.07539035 0.004752988 0.168353 0.119441725
000130 69 11 d0 3d 31 ad ac 3d c2 50 64 3e d5 b8 a9 3d
       0.10159571 0.08431471 0.22296432 0.08287207
000140 e6 20 09 3d 2b 30 b3 3d 57 fd c7 3d 4c 46 4b 3e
       0.03347864 0.08749422 0.097651176 0.19851035
000150 2c b5 2f bb 37 f4 d3 3c 83 73 f5 3b 3b bb 07 3e
       -0.0026810868 0.025873287 0.0074905767 0.13255017
000160 3a 8d a0 bd fd 5a e0 3b ae 77 a8 bd 64 55 51 3c
       -0.07839437 0.006846784 -0.08225952 0.012776706
000170 44 e6 12 bd 78 f1 6f bd 95 da 54 3d 10 c8 a0 3d
       -0.03586413 -0.058579892 0.05196627 0.07850659
000180 06 df 23 3e 1a 15 37 3e b0 e1 5c 3e 40 55 5a 3e
       0.16003045 0.17879143 0.21570468 0.21321583
000190 9c 82 13 3e b6 06 2b 3e 28 55 d8 3d 46 b6 95 3d
       0.14405292 0.16701779 0.10563117 0.073101565
0001a0 a8 d9 b6 bd f9 ff 39 bd d8 3e a5 bd ea 2a 0d be
       -0.089282334 -0.04541013 -0.08068627 -0.13785902
0001b0 96 df ac 3c 14 e1 1e bd b9 e4 59 3d b7 33 1b 3d
       0.021102708 -0.03878887 0.053196643 0.037891116
0001c0 ef ad a5 3d 10 66 5d 3d 15 da 12 3e 5a 53 b7 3d
       0.08089816 0.054052413 0.14341004 0.08951445
0001d0 ee a8 d4 3d 0e 79 c9 3d 96 e3 83 3e aa de bf 3e
       0.10383783 0.098375425 0.25759572 0.37474567
0001e0 97 04 10 bc a5 d0 d6 bd 8a 3e 60 bb b2 cb 37 be
       -0.008790157 -0.104890145 -0.0034216964 -0.17948797
0001f0 01 92 93 bc 06 90 1e be ed 0b 11 be 5d f9 04 be
       -0.018013956 -0.15484628 -0.14164706 -0.1298575
000200 45 5e 67 bd 2e 72 13 bd f5 58 5c bc 42 1c 7f bd
       -0.056486387 -0.035997562 -0.013448943 -0.062282808
000210 47 9a 66 bc 26 5a c7 bc 94 a1 d4 3b 52 87 21 3d
       -0.0140748685 -0.024334978 0.006488988 0.039435692
000220 8c 6d 81 3d 33 e3 e6 bd c5 51 cc 3c 48 e8 c8 bc
       0.063197225 -0.112738036 0.024941335 -0.024524823
000230 83 fc 3a 3d 95 9b a7 bd e4 ae 29 3e f0 da 93 3d
       0.04565097 -0.08183972 0.16570622 0.072194934
000240 40 eb 6f bc 5e a5 ab bc 09 8a ca bb 90 24 c9 bc
       -0.01464349 -0.020952877 -0.006181006 -0.024553567
000250 66 19 b6 3c bc 01 fc 3c 60 48 da bd 9b c4 c3 bd
       0.022228908 0.030762546 -0.10658336 -0.09558984
000260 12 e0 22 3e 6d 6d a8 3d 41 75 37 3e c2 6a 33 3e
       0.15905789 0.08223996 0.17915823 0.17521194
000270 1f 72 9e 3d 35 6b 42 3e 99 93 2f 3e b9 f0 0f 3e
       0.077366106 0.18986209 0.17146148 0.14056672
000280 11 70 22 3d 52 bd 00 3a 1e 44 75 3d 91 5c a7 3d
       0.039657656 0.00049110234 0.059879415 0.081719525
000290 9c 20 81 3a 7b 1b c2 3d bc e3 d3 3b 92 c4 1d 3d
       0.0009851637 0.09477898 0.006466357 0.038517542
0002a0 c3 e8 55 bd 5a 61 34 be 58 30 f3 3d d0 2b f1 bd
       -0.052223932 -0.17615262 0.11874455 -0.11775935
0002b0 02 e0 33 bc 7a 0f ad 3d c0 61 a5 3d ac 51 af 3d
       -0.010978701 0.084502175 0.08075285 0.085604995
0002c0 f6 2c c4 3d bc 66 45 3d b3 98 fa 3d b8 17 b8 3d
       0.09578888 0.04819368 0.12236156 0.08988899
0002d0 c2 3c 03 3e 00 f7 e6 3d cd 7c fd 3d 46 c8 2d 3e
       0.12816146 0.1127758 0.123773195 0.1697093
0002e0 c2 a1 be bc 6c 23 3c 3d 93 ec 65 3d 7b 55 74 bd
       -0.023270492 0.04593222 0.056133818 -0.059651833
0002f0 e5 96 91 3d 5a db 14 3d 6c f8 d3 3d 67 85 cc 3b
       0.07108859 0.036342002 0.10350117 0.0062414887
000300 90 34 80 bc 12 e8 59 bd e1 12 56 bd 81 15 35 be
       -0.015650064 -0.053199835 -0.052264098 -0.17683984
000310 34 2c f3 bc 19 ec c2 bd dc 9a dd bd 86 10 01 be
       -0.029684164 -0.09517688 -0.10820553 -0.1260396
000320 ea 15 32 3d e2 b3 a4 bd 05 f8 33 be 1b e9 47 be
       0.04347793 -0.080421224 -0.1757508 -0.19522516
000330 73 43 4c bb 81 c8 5a be 39 c9 87 be 38 9d 68 be
       -0.0031168133 -0.21365549 -0.26520708 -0.22716224
000340 a7 b0 86 bd e5 c7 e9 bd 56 49 15 be 3e d2 25 be
       -0.065766625 -0.1141508 -0.14578757 -0.16193482
000350 73 01 e4 bd 2a 1b c4 bd 88 b7 f7 bd 62 ed 12 be
       -0.11133089 -0.09575494 -0.12095553 -0.14348367
000360 0f 78 6a 3e a0 bb 2d 3e 3f 32 e7 3d ef 31 f2 3d
       0.22897361 0.16966105 0.112888806 0.1182593
000370 eb aa cf 3d 39 bf 81 3e c2 4a 84 3d 5a 2f 66 3e
       0.10140022 0.25341204 0.064595714 0.22479
000380 f3 39 cd 3d 44 90 0f 3e 62 8b 67 3d d5 33 82 3d
       0.100208186 0.14019877 0.05652941 0.063575424
000390 13 52 f3 3d ca 31 6f 3e b4 3b 00 3e c1 5c 94 3e
       0.11880889 0.23358837 0.12522775 0.28977016
0003a0 18 1e 8d bd 37 28 0a 3c 3a 09 d0 bd 41 c9 89 bc
       -0.068905056 0.0084324395 -0.1015801 -0.016819598
0003b0 f4 e3 e6 bc e8 68 a1 3d e8 83 1c be 9d 7a 6d bd
       -0.028184868 0.078813374 -0.15284693 -0.05797826
0003c0 80 d1 7d ba 50 86 ac 3c 7f 1f ba bb 34 f0 02 3e
       -0.0009682402 0.021060139 -0.005680024 0.12786943
0003d0 0a 14 9f 3d 73 b9 14 3d 7a 22 04 3d 36 e6 c7 3d
       0.07767494 0.03630967 0.032259442 0.09760706
0003e0 0e 52 7e 3c 8f bb 58 3e 91 23 b2 3d 73 7e 3c 3e
       0.015522493 0.21165298 0.0869819 0.18407612
0003f0 00 9b 17 3c dc b1 0c 3d 3b 10 df bd 8b be 53 bd
       0.0092532635 0.034349307 -0.108917676 -0.051695388

module.convlayer_000.bias f4 [80]
000000 eb 40 e2 bd a8 32 d7 bc 2c fa b6 bd 5f af ad 3d
       -0.11047538 -0.026269272 -0.08934435 0.08480715
000010 98 cd 99 3c 6c 72 a3 bd ff 85 6a 3d 9d 4b f6 bc
       0.018774793 -0.079808086 0.057256695 -0.030065352
000020 61 cb 8a bd 94 d7 85 bd 1d c9 8a be ad ff 05 be
       -0.06777073 -0.06535259 -0.27106562 -0.13085814
000030 b5 b0 c3 bc 93 20 5c be 52 ac fc 3d b8 75 81 bd
       -0.023887971 -0.21496801 0.12337555 -0.06321281
000040 09 eb 2a bc 0b c9 34 be 75 3c 45 3c 85 1d 8d be
       -0.010432013 -0.17654817 0.01203834 -0.27561584
000050 59 6d 2b bd fc e3 9b bd 3e d7 26 be 02 8f 6e bd
       -0.04185233 -0.07611844 -0.16293046 -0.05824185
000060 26 ca f1 3c 15 7b aa bd 21 35 db bd 6a b1 cf bd
       0.029515337 -0.08324257 -0.10703493 -0.10141261
000070 f4 12 bf 3c 2d 25 a2 be e1 bf 92 bd ab 89 a1 bc
       0.023324467 -0.31668988 -0.07165504 -0.019718966
000080 f3 87 aa bd b6 19 d8 be ce 9a 12 bd 63 64 3e be
       -0.083267115 -0.42207116 -0.035792165 -0.18592982
000090 8b 1b 15 bf 38 00 14 bc 36 18 cd bd 73 ee 84 bd
       -0.5824515 -0.009033255 -0.100143835 -0.06490793
0000a0 c8 18 6c bd b6 ea a8 bb e5 64 70 bd 69 5a 9b 3b
       -0.05764082 -0.005154933 -0.05868997 0.0047410023
0000b0 15 80 14 bd ac 3b 15 bd 10 10 04 bb 9a ca c3 bd
       -0.03625496 -0.03643386 -0.0020151176 -0.095601276
0000c0 32 bc 35 be 9a cd 6f 3c 3a 8c df bc 96 73 b9 bc
       -0.17747572 0.014636422 -0.027288545 -0.022638123
0000d0 77 fc 08 bb 02 3f a2 bc ba e6 b0 be 74 f5 dc be
       -0.0020902434 -0.019805435 -0.3455103 -0.43156016
0000e0 ef 32 a3 be 57 5a a4 bd 38 1c ee bd d2 0f 52 3d
       -0.31874797 -0.080250435 -0.11626476 0.05128462
0000f0 39 00 fd bc c7 72 47 bd 22 75 ae bd 8a 77 1f be
       -0.030883895 -0.048693445 -0.08518435 -0.15572944
000100 20 0a 62 bd f0 68 92 be df ec e7 bc c7 04 49 bc
       -0.055185437 -0.28595686 -0.028311191 -0.012269205
000110 63 0b 9c 3d 7d 00 ed 3d 24 b0 c0 bc c7 08 94 3d
       0.07619359 0.11572359 -0.02352149 0.07228237
000120 29 ed c7 bc 40 19 90 bb 41 40 8f 3c 9d a6 2f 3e
       -0.024405079 -0.0043975413 0.017486693 0.17153402
000130 70 f7 13 3e f2 8c 26 be 11 03 39 3d 86 65 38 bd
       0.14449859 -0.16264704 0.04516894 -0.045018695

module.convlayer_002.weight f4 [120, 80, 2, 2, 2]
000000 bc e6 29 3c b3 49 77 3d fd 04 81 3d f4 f4 93 3c
       0.010369953 0.06037302 0.062997796 0.018061139
000010 80 88 a5 3c 3e 2c 1c ba 2d 53 af 3c e1 e7 39 bd
       0.02020669 -0.00059575203 0.021401966 -0.045387153
000020 13 77 cb bc 80 d3 bd 3c a3 66 01 bd 60 9a 89 3a
       -0.024837052 0.02317214 -0.031592023 0.0010498278
000030 4e 18 b8 3c c8 0c fc ba 92 06 fc bc e5 9e 87 bd
       0.022472527 -0.0019229883 -0.030764852 -0.066221036
000040 89 91 99 bc 3b ee 2d 3d ee 3b 49 3d 13 fd 9b 3d
       -0.018746154 0.042463522 0.04912942 0.076166295
000050 20 3c 22 3d 55 86 9a 3d 70 39 26 3d 9c d5 99 3c
       0.03960812 0.07545153 0.04058212 0.018778615
000060 d6 70 82 3c 1c 2d e4 bc 56 b2 a7 3c 39 3f f0 bc
       0.015922945 -0.027853541 0.02047078 -0.029327022
000070 ee d6 46 bc 34 79 c5 ba 7f ed dc bb 07 a8 4f bd
       -0.012136204 -0.0015066029 -0.006742179 -0.050697353
000080 5f b7 b4 bc e5 d9 01 bb 7c 15 7c 3c 6b ea 42 bc
       -0.022060094 -0.0019813713 0.015385982 -0.01189671
000090 af df 41 bd e6 ba 6c bc eb 6e 80 3c 62 54 cd bc
       -0.047332462 -0.014448857 0.01567789 -0.02506465
0000a0 03 c3 4e 3c b9 c8 35 3d 7e 6a 05 3d fd fb 84 3c
       0.012619737 0.044380877 0.032572262 0.016233439
0000b0 d3 7e c4 bb 40 70 f1 bc c5 fb 6c 3d b4 61 09 bd
       -0.005996564 -0.02947247 0.057857294 -0.033540443
0000c0 17 b7 eb 3b 82 2a cc 3c 9d 9c 54 3d 86 7c 68 bc
       0.007193457 0.024922613 0.05190717 -0.014189845
0000d0 ec 8b 38 bc 01 f9 99 bb c5 a6 4a b8 f6 65 f5 bd
       -0.011263829 -0.004698873 -4.831587e-05 -0.11982338
0000e0 ce 1d 2c 3d f7 7f 87 3c f3 64 92 3c 03 de 29 3d
       0.04202061 0.01654051 0.017870402 0.041471492
0000f0 1f 1a d9 bb 78 5b 0b 3d 1c 69 02 3d 62 6b 89 bd
       -0.0066254283 0.03402278 0.03183852 -0.06709935
000100 46 d4 9e b9 c9 83 5c bc 7e 16 2e bd a3 5d c2 bc
       -0.00030294264 -0.013459154 -0.04250192 -0.02372629
000110 1a b3 34 bd 65 63 24 bc be 03 de 3c 46 35 42 bd
       -0.044116117 -0.010033463 0.027101394 -0.047414087
000120 7f 0f ae bc fa a4 c2 bc 3a 70 f1 bc 2c 5f a8 3c
       -0.021247623 -0.023760308 -0.02947246 0.020553194
000130 31 5d b8 3c 4c 7f 31 3d bf 7f 05 bd 43 48 11 3d
       0.022505375 0.04333429 -0.03259253 0.035469305
000140 7c fd ed bb 3e 2a 05 bd a1 4b 3b 3c b3 c2 33 bc
       -0.0072628837 -0.03251099 0.011431606 -0.010971713
000150 7f 54 4d 3c cb 67 27 bc 41 c6 8e bc ec 5d 95 bd
       0.0125323525 -0.010217617 -0.01742852 -0.07293305
000160 87 12 27 3c a8 ae 94 3c 62 59 3b 3c 7e a8 c8 3c
       0.010197288 0.018149689 0.011434885 0.024494406
000170 6a cd b1 3b 50 5a 62 bb da 42 6e bc 88 36 a8 bd
       0.0054260986 -0.0034538694 -0.014542306 -0.08213526
000180 3d 9d c2 bb a1 d2 55 bc 1a 73 8a 3b 51 bf d1 bc
       -0.0059391544 -0.013050706 0.004225147 -0.025603922
000190 1a d2 ac 3a 3c 77 44 bc 4f ab b0 3d 92 95 7b bc
       0.0013185174 -0.011991318 0.086264245 -0.015355485
0001a0 7c ef 10 bd 71 e8 25 bd 87 0a 08 bc e8 21 3c 3b
       -0.03538464 -0.040504877 -0.008303291 0.0028706733
0001b0 2a 07 3c bc 61 fd 3a bb 36 08 97 b9 77 06 72 bc
       -0.011476317 -0.0028532373 -0.00028807082 -0.014772049
0001c0 9f ad 03 bd ea 12 9a bb e1 35 8a 3c cd eb 45 bd
       -0.032148 -0.0047019618 0.016871395 -0.04832058
0001d0 19 6c 09 bd 08 ea 25 bd 68 fe 2f bd d3 0a 9c bd
       -0.033550356 -0.040506393 -0.04296723 -0.07619252
0001e0 3d aa a0 3c e6 11 c4 3c 00 19 8b b8 d7 ff 0d bb
       0.019612426 0.023934316 -6.632693e-05 -0.0021667385
0001f0 cc bf be bb 55 c4 af bc ea 73 00 bd b1 b6 bb bc
       -0.005821204 -0.021455923 -0.031360544 -0.022914262
000200 b2 08 90 3c 16 74 e5 3b 59 c5 a5 3c b0 02 1f bc
       0.017582271 0.007002364 0.020235704 -0.009705231
000210 43 db 49 3c b5 b1 e6 3b e2 60 dc 3b 9d 91 b7 bc
       0.0123203425 0.0070402273 0.0067254165 -0.022408301
000220 df 66 08 3d 06 a9 15 3d 53 98 11 bd 0f 3c b2 bc
       0.03330123 0.036538146 -0.03554566 -0.021757154
000230 d1 b0 8e bc 06 e7 58 bd 92 4a 99 bd d3 c9 7e bd
       -0.017418297 -0.052954696 -0.07484926 -0.062204193
000240 96 2b 82 bc de 4d b2 3c de 6c f9 bc af 13 dd 3c
       -0.015889924 0.021765646 -0.03044742 0.026986925
000250 d5 e8 8d bc ab 5c d4 bc ff 22 b3 3b da f2 68 3b
       -0.017322937 -0.025923094 0.0054668183 0.0035545141
000260 32 da 02 bd 91 54 b5 3a 03 4b 84 ba a8 8f cf 3b
       -0.03194637 0.0013834407 -0.0010093156 0.006334264
000270 63 a5 8c 3b 76 d2 f2 bb 18 06 e2 bc dd a4 2b bd
       0.0042921766 -0.007410343 -0.027590796 -0.041905273
000280 6a 20 35 3c dd ed 23 3d fa da 27 3c cf 54 23 3c
       0.011055091 0.040021766 0.010245079 0.00996895
000290 ef fc e2 bc 79 1f f3 3b d5 e0 c3 3c 1f 90 45 bc
       -0.027708499 0.0074195233 0.02391092 -0.012058287
0002a0 27 1b 95 bc f5 b4 13 bc f9 58 f9 bc 11 28 26 3c
       -0.018201424 -0.0090153115 -0.030437933 0.0101413885
0002b0 67 f9 ac 3b f6 63 4d bc 26 bd 87 3d 34 ee 57 bd
       0.0052787545 -0.01253604 0.06627874 -0.052717403
0002c0 60 1c 81 bc e9 ac 1a 3d 29 5e 07 3d 2e 8d 2d bc
       -0.0157606 0.037762556 0.033048782 -0.010592742
0002d0 c8 15 ba 3b 26 9c ef bc 99 ce 90 bc 93 71 91 bc
       0.005678866 -0.029249262 -0.017676638 -0.017754352
0002e0 be fb 43 bd d4 00 9b bd b6 65 98 bb 17 17 89 bd
       -0.047847502 -0.07568517 -0.0046507968 -0.06693857
0002f0 64 65 f8 bc 98 bc 4b bc 4e ef a1 3c 21 76 7c 3d
       -0.030321784 -0.012435101 0.01976743 0.061636094
000300 7e 9d fc bc 5d 68 0b bd f6 4d 96 bd 1c 7f a0 3c
       -0.030836817 -0.034035075 -0.073390886 0.01959186
000310 a3 06 ef bc 23 b1 70 3d ac ef 37 bd 3f 0c 0e 3e
       -0.02917797 0.05876268 -0.044906303 0.13871859
000320 06 e0 82 3c c9 03 14 3d 83 7b 76 38 5b 85 49 bc
       0.015975963 0.036136422 5.8766e-05 -0.012299861
000330 dc 54 1d bc 2c fb ad bb 1b 6f c9 3c 16 43 8b 3c
       -0.009602752 -0.005309483 0.024589112 0.016999763
000340 4f 70 de bc f4 78 a6 3b df 50 ad b8 13 ae 08 3c
       -0.027153162 0.0050803367 -8.264346e-05 0.008342284
000350 78 5f 14 3d 4d 83 32 3d b6 be e5 3c 1d d1 f9 3c
       0.03622386 0.04358225 0.02804504 0.03049522
000360 f5 72 31 3d e7 39 37 3d 12 bd 96 3d df c5 55 bc
       0.043322522 0.044732954 0.07360281 -0.013047664
000370 2e e6 52 3d 53 14 5e 3d 7b 93 e9 3c 7e 20 e1 bc
       0.051489048 0.0542186 0.028512707 -0.027481314
000380 58 85 e8 3c 22 e1 1f 3d ca 50 03 bc d3 4e 0a bc
       0.028383896 0.039033063 -0.008014867 -0.008441645
000390 95 63 d5 3c 28 4c 5a 3d d0 f8 06 3c 03 6d 5f bd
       0.026048461 0.053295285 0.008238032 -0.05454732
0003a0 2b 38 01 3c 6e 16 86 3c a7 ae c1 3c ef 19 12 bc
       0.007886927 0.016368117 0.023642851 -0.008917316
0003b0 77 20 24 bb 9d e4 22 bd 02 fc 38 bd 91 63 f0 bd
       -0.0025043765 -0.039768804 -0.04516221 -0.11737741
0003c0 95 fd af bc 44 8f 33 3c 8b 4e a9 3c 83 21 6a 3d
       -0.021483222 0.01095945 0.020667335 0.057160866
0003d0 a9 3a 9f bc b8 1f e0 3c 29 68 ad 39 87 59 18 bd
       -0.019437151 0.027358875 0.00033074737 -0.037194755
0003e0 df 7d ae bb 4b 3a d7 bb 0d c7 70 3c 3c 16 a4 bc
       -0.0053250636 -0.0065682284 0.014695895 -0.020030133
0003f0 70 6f 04 3b 72 89 37 bd f6 e9 6a bd 29 47 9b bc
       0.0020208023 -0.044808812 -0.05735203 -0.01895483

module.convlayer_002.bias f4 [120]
000000 0e 42 a5 bd ba 82 cf 3c e4 0d 9a 3b 89 87 15 bc
       -0.080692396 0.02533089 0.004701363 -0.009126552
000010 fa d0 5a bd 58 0c 9f 3c f6 10 89 bb 8f 1d 53 bd
       -0.05342195 0.019415066 -0.00418293 -0.05154186
000020 4b 03 bf 3d 3a d6 a7 bd 3e 5c a8 3c cc f8 6a bb
       0.093268 -0.08195157 0.020551797 -0.003585386
000030 fb fa 06 3d 03 92 96 bd a4 e0 1c 3d 19 cb f7 3c
       0.032954197 -0.07352068 0.03830017 0.030248212
000040 96 f8 71 3d ff a4 a1 3d f8 ff 10 3d 3a 10 38 3d
       0.05907496 0.07892799 0.03540036 0.04493735
000050 19 9e fa bc e5 c2 14 bd c9 59 fd bc 73 47 19 bd
       -0.030592965 -0.03631868 -0.030926602 -0.037421655
000060 f9 e8 f7 3d 94 a3 78 bd 7b 1f 09 bd 6f 76 d7 bc
       0.12104983 -0.060702875 -0.033477288 -0.02630159
000070 aa e4 46 3d c1 c5 a5 bb 9c 86 85 bd 2f 43 da bd
       0.048557915 -0.0050589745 -0.06519815 -0.106573455
000080 ed 21 18 bc 10 25 70 bd d0 61 04 bd e5 c0 3b 3a
       -0.009285432 -0.058629096 -0.032319844 0.00071622274
000090 8d e8 a4 be ba 96 62 3d 9c 9e be 3c c3 d0 8e 3d
       -0.32208672 0.055319525 0.02326899 0.06973412
0000a0 7b 9d a3 3c f8 9f 7d 3c f0 f3 66 3d 92 cf ff 3c
       0.019972553 0.015480034 0.05638498 0.031226907
0000b0 69 a5 20 bb 9e 78 0b 3d ea dd ca bd d0 b3 91 3c
       -0.0024512655 0.034050576 -0.09905608 0.017785937
0000c0 03 d5 3a bd e3 8c 97 3d c2 fb e7 3d 1c 2c 5a be
       -0.0456133 0.07399919 0.11327316 -0.21305889
0000d0 14 d8 80 bd 2b 7e ca 3b 8b fc 5f 3d 04 6a a8 3d
       -0.06291214 0.006179591 0.054684203 0.08223346
0000e0 c2 9d ca 3c 1a 5e ac 3d 38 17 72 be 61 63 5b bd
       0.024733428 0.08416386 -0.2364167 -0.053561572
0000f0 61 f1 8f 3c 15 e5 c8 bd 75 03 ad bc 51 82 3d 3d
       0.017571153 -0.09809319 -0.021119813 0.046266858
000100 bd 22 8c bd 60 30 3f bc 76 8a b7 bd 4a 1b 80 bb
       -0.06842563 -0.011669248 -0.08961956 -0.003909503
000110 d3 30 de 3d 71 bb ea 3c 5a 7c 3f 3d dd 19 91 bc
       0.10849156 0.028653832 0.04674945 -0.017712528
000120 e9 4b 3a bc 93 28 54 3c 5c 2c c1 bb b8 05 24 bd
       -0.011370637 0.012949127 -0.0058951806 -0.040044516
000130 a3 f5 63 3d f3 50 10 be 34 22 7e 3d 37 67 06 3e
       0.05565418 -0.1409338 0.062044337 0.13125311
000140 ca e9 8f bc fe ee 04 3d b8 5b c5 bb cc 63 5d bd
       -0.017567534 0.032454483 -0.0060228966 -0.05405025
000150 a1 75 97 3c a1 8d aa bc 9e 49 3b bc 84 c6 a8 3d
       0.018488707 -0.020819487 -0.011431126 0.08240989
000160 b1 e4 b0 3d 09 fb 19 3d 8a 51 b2 3c 50 68 10 be
       0.086373694 0.03759292 0.021767396 -0.14102292
000170 a0 ec b0 bc 5e 4f f2 3c 21 03 4c 3b c8 e1 04 3c
       -0.021597207 0.02957886 0.0031129795 0.008110471
000180 4f 2d 35 3d 03 50 88 3e 59 1c e3 3d bd 9b 47 3d
       0.044232663 0.26623544 0.11089391 0.048732508
000190 93 ad 94 3d 5e bb 0c be 97 a9 c2 3c ba 59 af bb
       0.07259669 -0.1374335 0.023762507 -0.0053512724
0001a0 bd 50 27 3d 35 f1 b8 3b 0a 54 45 3e 56 5f 4a bd
       0.040848482 0.0056439885 0.1927034 -0.049407326
0001b0 2d 1c a1 bd 91 93 54 3d b4 0f 90 bd 58 22 b2 3c
       -0.07866702 0.051898543 -0.07034245 0.021744892
0001c0 94 f2 fc bd 77 de a4 bd 0e af a7 bd 7c d8 c2 3d
       -0.123509556 -0.08050244 -0.08187686 0.09513947
0001d0 53 9d ed bb 83 13 14 3d b6 7b f2 bd df e0 28 be
       -0.0072514205 0.03615142 -0.11840002 -0.16492032

module.fclayer_000.weight f4 [120, 120]
000000 56 95 5e 3d d4 e8 28 bd ec ae 8b 3d 63 98 f7 3c
       0.054341637 -0.041237667 0.06820473 0.03022403
000010 b6 cc 96 bd 9f 35 47 3c 94 34 0a bc ce 8b 76 3d
       -0.07363264 0.01215878 -0.008435387 0.060191922
000020 35 30 44 3d af da 4d 3d 0a 40 15 bd d1 52 28 bd
       0.047897536 0.05025738 -0.036438026 -0.041094605
000030 36 3d 26 3d f9 d7 e1 3c a2 6f 53 bd 87 11 42 bd
       0.04058572 0.027568804 -0.051620133 -0.047379997
000040 a6 6e 6f bd 91 c6 95 3d c6 d2 87 3a 96 73 1d bd
       -0.058455132 0.07313264 0.0010362498 -0.03844031
000050 9b 91 85 3d 38 dc b9 3c a7 a9 27 bd ea 77 7a 3d
       0.06521913 0.022688016 -0.040933277 0.061149515
000060 00 af 63 bc 3d a4 1c 3a eb 66 9c bd 97 c4 99 3d
       -0.013896704 0.0005975401 -0.076368175 0.075082
000070 03 97 7d bd 59 2f a4 3c 7f 20 a0 3c 4b 06 54 bb
       -0.061911594 0.020042108 0.019546745 -0.0032352384
000080 4c c1 05 bd be 36 47 bc 99 8d 00 bd 18 d4 84 3d
       -0.032655045 -0.012159048 -0.031385038 0.06485766
000090 63 1a 97 3d 7c 59 85 3c ed 15 f4 3c ad 5c 1f 3c
       0.0737808 0.016278021 0.029795611 0.0097266855
0000a0 38 49 93 3d 8e e9 8e bd c7 9a 63 bd 47 96 02 bd
       0.071917 -0.06978141 -0.05556753 -0.031881597
0000b0 f1 2f 13 3c 58 9b 6e bc f3 3a 85 3d c7 fe 0a 3d
       0.008983598 -0.014563404 0.06505384 0.03393438
0000c0 26 79 2b bc 88 ad da 3c 39 e2 e8 bc 78 26 ea bc
       -0.010465896 0.026694074 -0.028428184 -0.028582796
0000d0 32 82 5e bd c4 2b 97 bd eb b6 4f 3d 58 52 2d bc
       -0.054323383 -0.073813945 0.050711554 -0.010578714
0000e0 aa 9b 89 bd 22 8c fd bc de 41 0d bd 63 ec 83 bc
       -0.06719144 -0.03095061 -0.034486644 -0.016103929
0000f0 6d 5f a9 3b ff e2 59 bd f8 9a c9 3c 2b 17 91 bb
       0.0051688463 -0.053194996 0.024610028 -0.0044278107
000100 2e 5a 93 37 01 1d 90 3d cd 2f 38 bd 07 21 9c 3d
       1.7565759e-05 0.07036782 -0.04496746 0.07623487
000110 20 c5 cf bc 15 01 9d 3d b7 60 9e 3b 4a 50 f1 bc
       -0.025362551 0.07666222 0.0048333067 -0.02945723
000120 6a 9d 53 bd da 2e 4c 3a f1 32 94 bc cc ee 3f 3b
       -0.051663794 0.0007788964 -0.018090697 0.002928662
000130 a4 34 9a bd a1 9d 7d bc 89 0d 67 bd 22 06 85 bd
       -0.07529572 -0.015479476 -0.056409393 -0.0649531
000140 d6 4d e5 3c c9 d4 7b 3c af ca 27 bd 8e e8 ea 3c
       0.027991217 0.015370556 -0.04096478 0.028675344
000150 3c c5 93 bd 17 b7 ad 3c a5 f1 a6 bc b7 bf 6d 3c
       -0.07215354 0.021205468 -0.020378897 0.01451104
000160 29 49 00 bd ee 5a 13 3d 8c 01 be 3a f0 a8 b5 3c
       -0.03131977 0.03597539 0.0014496311 0.022175282
000170 13 0e 68 bd 55 69 0c 3d 81 fb 1c 3d 80 28 50 bd
       -0.056654047 0.03428014 0.03832579 -0.050819874
000180 14 19 f1 3c 27 c4 99 3d c4 4e d7 bb 48 c2 b8 bc
       0.029430903 0.07508116 -0.006570669 -0.022553578
000190 16 ee 00 ba 22 f3 75 3d b9 02 8a bd 72 00 a0 bc
       -0.000491829 0.060046323 -0.067388006 -0.019531462
0001a0 fa f0 6b bd bd 03 9c bd 7a 5f 95 bd 97 eb cf 3c
       -0.05760286 -0.076179005 -0.07293601 0.025380893
0001b0 00 c0 3e 3c 15 9b f7 3b 3e a4 7b bd bc c9 88 bd
       0.011642456 0.007556329 -0.06143593 -0.06679103
0001c0 b0 5a 2a bd 1c 74 25 bd c5 a8 55 3d e5 8d 53 bd
       -0.041590393 -0.040393934 0.052162904 -0.051648993
0001d0 f3 33 b2 bc da f5 a8 bc 0c 8b 86 bd 13 72 6e bd
       -0.021753287 -0.020625044 -0.0656949 -0.05821426
0001e0 3e 1d 67 bb 20 2f 95 bb 29 3e 65 3d 46 57 a7 bc
       -0.0035265232 -0.004552737 0.055967484 -0.020427357
0001f0 31 3c 58 bd 8c ef 45 3d 9f fd d1 bc 20 04 47 3c
       -0.052791778 0.048324153 -0.025633631 0.01214698
000200 e2 f3 8a 3d 7a 4a 8f 3d fa 92 ca bc 00 7d 52 3d
       0.06784798 0.06996627 -0.024728287 0.05138874
000210 8e a1 8f bb 48 0e 94 bd 4b 44 03 3c 63 87 c4 3d
       -0.0043832725 -0.072292864 0.008011888 0.095961355
000220 81 9f 77 bd 52 69 55 3d 78 a6 f4 3c e4 11 69 3d
       -0.06045485 0.052102394 0.029864535 0.056901827
000230 e4 3a a5 bc 3b 4c 94 bc 67 8a 51 bd d0 36 9c bd
       -0.020169683 -0.018102756 -0.05115738 -0.07627642
000240 87 9b dd 3d be 08 f8 bb 01 32 20 bd bf b0 88 bd
       0.1082068 -0.0075694015 -0.039110187 -0.06674337
000250 e0 92 4e 3d 80 71 a4 bd 19 99 bc 3c e5 36 b2 bd
       0.05043304 -0.08029461 0.023022221 -0.087018766
000260 2b 32 5e bb 38 75 49 bc 66 e1 81 3c ed c4 98 bc
       -0.0033904414 -0.0122960135 0.015854549 -0.018648589
000270 cd 6b b2 bd b6 51 94 3d ee 5c b3 3c 5b 0e fc 3c
       -0.087119676 0.072421476 0.021894898 0.030768564
000280 ba 00 aa 3d c9 d9 cc 3c 31 45 91 3d 42 98 fe 3d
       0.0830092 0.025006192 0.07093275 0.124313846
000290 91 83 8a bd 50 55 9e bc 39 a6 95 bc cd 03 5a bd
       -0.067633756 -0.01932779 -0.018267738 -0.05322628
0002a0 2f f7 69 3d f1 33 cb 3d 6c 2f 4c bd 96 c0 39 3c
       0.0571205 0.099220164 -0.049849913 0.01133742
0002b0 02 95 43 bd 10 a6 97 3c 86 1c 45 bd 65 4d c7 bb
       -0.047749527 0.018511802 -0.048122905 -0.006082224
0002c0 ab e3 24 bd 50 6d 01 3d 82 6e 11 be 0a a9 46 bd
       -0.040256184 0.03159839 -0.14202312 -0.048501052
0002d0 8e 60 ba 3d 78 9c b4 bc 59 44 9d 3d 24 88 fd 3d
       0.091004476 -0.022047266 0.07679052 0.123794824
0002e0 7d 70 8a 3c b9 f9 69 bd c7 b5 82 bd 7c 6f 2b bd
       0.016899342 -0.05712292 -0.063823275 -0.041854367
0002f0 90 11 b8 3c e2 02 c0 3d 24 7e d8 bc ca 9e 86 3a
       0.022469312 0.0937555 -0.026427336 0.0010270712
000300 67 39 c9 bc 5d ee e8 3c eb 1d 76 3d 71 8a bb bd
       -0.024563504 0.028433973 0.060087126 -0.09157265
000310 c6 f9 0b 3d 5a 24 53 be c4 b8 5f bc 23 1f 98 3d
       0.03417375 -0.20619336 -0.013654891 0.07427814
000320 8e 22 f6 bc 56 63 33 3b 4d 8c df 3c 10 ff af bc
       -0.030045774 0.0027372441 0.02728858 -0.021483928
000330 2b 72 c1 bd 97 d0 73 3d c6 45 e9 bc 11 fe a0 3d
       -0.09445604 0.0595251 -0.028475653 0.07860959
000340 fa fb b2 bb 5d 61 b2 3d 8d c0 af bd ff 8d 4e bd
       -0.005462167 0.08709977 -0.08581648 -0.050428387
000350 07 eb 52 bd 59 07 be 3d c0 27 33 bd 4e 87 64 bc
       -0.05149367 0.09278745 -0.04373908 -0.013948275
000360 84 3f 42 3d ef ad 96 bd 25 d0 22 3d bb 27 34 3c
       0.047423854 -0.07357394 0.039749283 0.010995801
000370 29 6a 7c 3d 85 59 82 3d 5f bf 9f 3d 47 17 09 bd
       0.06162468 0.06364731 0.07800173 -0.033469465
000380 f1 a1 71 bc 0d 38 48 3d f5 fa ab 3d e2 50 09 bd
       -0.0147480825 0.04888158 0.08397476 -0.0335244
000390 b0 04 58 bd 94 fc 85 3d 8f be 69 3c bd 03 95 3d
       -0.052738845 0.06542316 0.014266624 0.07276104
0003a0 a5 42 c8 bc b2 af 8e bd 6e 8b 09 3d ae 24 94 bc
       -0.024445841 -0.06967105 0.033580236 -0.018083896
0003b0 c8 40 71 bd 92 28 81 bb f7 e6 78 3d ba 68 fa 3c
       -0.05889967 -0.003941604 0.06076714 0.030567516
0003c0 0e 0c 9a 3d c5 47 13 bd 00 aa 21 bd 61 a4 b9 3d
       0.075218305 -0.035957117 -0.039468765 0.09064556
0003d0 2c 99 05 bd c6 7e 06 bd 37 98 45 3c ad bb d1 3c
       -0.03261678 -0.032835744 0.012060217 0.025602186
0003e0 ef 73 c2 bc fa 91 60 3c 74 73 31 3c 53 b1 17 3d
       -0.023736922 0.0137066785 0.010830749 0.037034344
0003f0 89 8e 0e bd de a3 30 3d d6 37 2f 3c b9 ce 8c 3d
       -0.0348039 0.043125026 0.010694465 0.06875367

module.fclayer_000.bias f4 [120]
000000 f3 6b 1b bd 60 bc bb 3d 0b b4 24 bd 38 5c 29 3e
       -0.037944745 0.09166789 -0.040210765 0.16539085
000010 f3 9d 5d bd 8c dd 08 3d da c5 26 3e e9 58 39 bc
       -0.05410571 0.03341441 0.16286412 -0.011312702
000020 51 95 25 bc c1 1e ad bc dd 61 dd bc 1f 64 65 bd
       -0.010106401 -0.021132829 -0.027024204 -0.056003686
000030 1f fc a4 3d 52 4e fc 3c 62 f7 9b bd bb 61 07 3e
       0.08055901 0.030799065 -0.07615544 0.13220875
000040 a9 46 0b 3d 4f fe e8 3d 7d e8 92 3d 32 93 87 bd
       0.034002934 0.113766305 0.0717325 -0.06619872
000050 3d 13 0d 3e c9 c8 11 3d de 7e bd 3d 3d 6d c4 bc
       0.1377687 0.035591874 0.092527136 -0.02397787
000060 94 4d aa bd 68 87 08 bc 40 9c 1b bd 9d 2e 30 bd
       -0.08315578 -0.008333065 -0.03799081 -0.043013204
000070 f3 48 9d bd 37 90 95 3d 38 b9 b0 3c 7f e5 26 3e
       -0.076799296 0.073028974 0.021572694 0.16298483
000080 b2 fd 13 bd 88 09 ca 3d fe df f2 3c 3c 1f 81 3d
       -0.036130615 0.09865099 0.029647823 0.063047856
000090 3e 4c 50 bc aa e2 bd bd ba a4 07 3e 26 97 9e bd
       -0.01271349 -0.09271748 0.13246432 -0.07743673
0000a0 32 8e 98 3d 47 66 f8 3a 7f 53 41 3c 81 81 2c bd
       0.074489966 0.001895138 0.011799692 -0.042115692
0000b0 be 7f 29 3e 8c f2 9e 3e 93 b0 d4 bd a7 31 55 3e
       0.16552636 0.31044424 -0.10385241 0.20819722
0000c0 01 8c 2c bc 57 21 9b 3c 74 11 28 bd 79 08 1f 3e
       -0.010531426 0.018936796 -0.04103227 0.15530576
0000d0 1c 97 3f bd 2b ef 11 bc 52 37 2f bd bc d7 59 3c
       -0.04677497 -0.00890712 -0.042777367 0.013296064
0000e0 10 64 1d 3d f1 5a 95 bd a8 41 6a bd 5c a9 c5 3b
       0.038425505 -0.07292736 -0.05719152 0.006032152
0000f0 2a cd 16 3e 54 c2 3e 3d f2 5a fb 3c d1 c2 45 3d
       0.14726701 0.046572044 0.030683015 0.048281495
000100 49 43 0e 3e 71 5d 16 3e 7b fa 23 3e 1f f1 25 3d
       0.13892855 0.14684083 0.1601352 0.040513154
000110 40 0f 2c 3e 1e d4 34 bb 0e 3b 2b 3e b7 bc d0 3d
       0.16802692 -0.0027592252 0.16721746 0.101922445
000120 8a 52 0e 3e 67 f1 05 bd ef de ae bd c8 16 8f 3c
       0.13898674 -0.032700922 -0.08538615 0.017466918
000130 f9 22 73 bd 3f e7 8a bb 32 9b d4 3d db 81 8c 3d
       -0.059359524 -0.0042389925 0.10381164 0.068607055
000140 c0 07 b7 3b 94 4e 2f 3d a3 32 8f 3d 6a 95 12 bd
       0.0055856407 0.042799547 0.0699208 -0.035787024
000150 8e 1b 66 bd 5b ce b0 3c 94 02 e6 3c d3 52 93 bd
       -0.056178622 0.021582773 0.028077401 -0.07193532
000160 f0 a7 95 bd 81 84 4e 3d 46 f8 40 3c d7 f0 43 3d
       -0.07307422 0.050419334 0.011777943 0.047837105
000170 d3 0c 17 bd f5 9b 00 3e b8 27 13 bd c8 ef a8 3d
       -0.036877465 0.12559493 -0.03592655 0.0824886
000180 1d b3 b6 3d 6f ff 09 bc a1 63 05 3d 92 b6 81 3d
       0.08920882 -0.0084227165 0.032565717 0.06333651
000190 f1 b3 23 3c f9 9a 34 3c 59 6b e1 bc 29 22 92 bc
       0.009991632 0.0110232765 -0.027517008 -0.017838554
0001a0 51 15 1a 3e 51 e6 39 3d a7 7f 47 3e 06 95 1c 3e
       0.15047194 0.045385662 0.19482289 0.15291223
0001b0 64 4b 03 bd 9c 6d 81 bd 00 79 5f 3d 3c 3d bf 3c
       -0.03205432 -0.063197345 0.054558754 0.023344629
0001c0 b0 b3 27 bc 17 39 0e 3e a9 7c 4a bd d3 27 3c 3b
       -0.010235712 0.13888966 -0.04943529 0.002871026
0001d0 76 da bb 3d 79 fd 69 bd 95 cf fe 3d be 0a c3 3d
       0.091725275 -0.057126496 0.12441937 0.09523533

module.fclayer_001.weight f4 [2, 120]
000000 5e b9 80 3c 9e 10 7f bd 09 70 ef 3d bb 34 f4 bd
       0.01571339 -0.062271707 0.11691291 -0.1192412
000010 34 71 00 3d 23 ce 12 3e 92 88 78 3e 5c 41 fd 3d
       0.03135796 0.14336447 0.24270847 0.12365982
000020 a0 66 80 3b c1 c8 35 bd e4 cd 4a bd ef a0 cb 3c
       0.003918484 -0.044380907 -0.04951276 0.024857013
000030 cf 2e 37 bc e1 7a 06 3e 99 5e 4b bc df b7 c0 bd
       -0.011180594 0.13132812 -0.012412691 -0.09410071
000040 54 50 be bc 1b 29 34 be 20 8b 83 bd d1 4d a1 3d
       -0.023231663 -0.17593805 -0.0642302 0.078761704
000050 5a f5 f9 3d ff 3a d4 3d 88 b5 05 3e ad 3d a3 bd
       0.12205 0.10362815 0.1305753 -0.07970748
000060 d0 f4 e4 3c 3e 58 a6 3d 86 9d 11 3d de 91 85 3d
       0.027948767 0.081222996 0.035550617 0.065219626
000070 5e b0 c4 3c 7d 43 cb 3d fd de 12 bd b4 a4 a9 bd
       0.02400988 0.09924982 -0.03585719 -0.08283368
000080 84 7e 46 3d a2 d4 29 3e ff 94 38 bc 8d 1f 52 bd
       0.0484605 0.16585019 -0.011265992 -0.05129962
000090 7f f8 f9 bd 20 b0 64 bd 13 34 9a bd 6d f5 84 3c
       -0.122056 -0.05583203 -0.075294636 0.01623031
0000a0 ce c7 02 bc be b5 4a bd be 0e c2 3c c1 25 1c 3d
       -0.007982207 -0.04948973 0.02368867 0.038121942
0000b0 ab 1e 1b bd b5 69 cb 3e 03 f2 08 3c 66 cc 8f bd
       -0.037871044 0.39729086 0.008358481 -0.07021408
0000c0 ee ff fe bc 51 e6 1f bb 05 88 15 3e 71 e2 d4 3d
       -0.031127896 -0.0024398754 0.14602669 0.10394753
0000d0 f8 bc 90 bd b6 37 ab 3d f1 ea 56 3d c1 5e 70 3c
       -0.07067293 0.083602354 0.05247015 0.014671029
0000e0 c7 18 21 be 60 98 43 3c be b0 99 bd 3d 46 d2 3d
       -0.15732108 0.0119381845 -0.07504414 0.10267303
0000f0 b6 50 86 bd 3f f3 74 bb a3 56 f8 bc f1 b6 e8 3d
       -0.06558363 -0.0037376431 -0.03031475 0.11363018
000100 4c f1 03 3e f4 56 26 3e bc 94 f5 3d a7 56 ae 3d
       0.12885016 0.16244107 0.119912595 0.085126214
000110 9c 1d d3 bd d4 5b 78 bd 07 bd d3 bd e7 b1 ed bc
       -0.10308382 -0.06063445 -0.103387885 -0.029015495
000120 90 b2 06 3e ca dd b1 3c 0a d8 95 3d 12 5a 8e bd
       0.13154054 0.021712203 0.07316597 -0.06950773
000130 c3 26 92 3c 55 80 28 3c 57 9c 61 bd 4e 64 da bd
       0.017840749 0.010284503 -0.055080738 -0.10663663
000140 6c 72 60 bd 64 3c bc 3d 64 9d d8 bd c3 52 5e bd
       -0.05479662 0.09191206 -0.10576895 -0.054278146
000150 13 38 f2 bb b2 e6 a5 bd e8 58 0f 3e 91 f5 82 3d
       -0.0073919385 -0.08100642 0.13998759 0.06394494
000160 76 86 45 bd 55 35 5c bd e1 69 d1 bc d8 db 64 bd
       -0.048223935 -0.0537618 -0.025563182 -0.05587372
000170 fb 23 de 3c cd 04 0c 3e 1a 74 fe 3b 6e 86 09 bd
       0.027116766 0.13673706 0.007765305 -0.033575468
000180 b0 4b c4 bd b9 bc ab bd 6b bb bf 3d 1d 88 11 3c
       -0.09584749 -0.08385605 0.09361919 0.00888255
000190 31 10 4c bd 2a 88 9f bd 66 5b 23 bd 29 39 65 be
       -0.04982013 -0.07789643 -0.039882086 -0.22385086
0001a0 8d 7d 78 bd 38 61 03 3e 2a 8c 41 3e 27 7b 27 3e
       -0.06066661 0.12830055 0.18901125 0.16355573
0001b0 f8 84 b3 bd 99 40 68 3d 4e 62 7d bd 5c 52 b2 3d
       -0.08765596 0.05670223 -0.06186133 0.08707115
0001c0 0a 46 d3 bd 7d da 84 3d a7 8a 51 bd 98 50 26 3a
       -0.10316093 0.06486986 -0.05115762 0.0006344407
0001d0 53 c8 06 3d e2 63 dc 3a f1 31 03 be 8a e1 00 be
       0.032905888 0.0016814435 -0.1281202 -0.12586036
0001e0 1e 70 51 3d 26 9a b8 3d a6 99 26 bc 30 99 af 3d
       0.051132314 0.090137765 -0.010168469 0.0857414
0001f0 1b 3e cc bd 12 30 ae bd 64 03 78 be ca 54 6c bd
       -0.09972783 -0.085052624 -0.24220043 -0.05769805
000200 89 b6 53 bd 12 c9 51 bd 09 0d 5e 3c ab eb ed bc
       -0.05168775 -0.051217146 0.0135529125 -0.02904304
000210 08 03 82 3d b8 3e 5b bd 53 31 3e 3d 99 05 99 3d
       0.063482344 -0.05352661 0.046433758 0.07471771
000220 ea dd de 3d 9f c8 f8 3d 56 f5 aa 3d 8d ea 96 bd
       0.108821705 0.121476404 0.08347575 -0.07368956
000230 22 6f 1f be 7d 74 29 bc cf 8d 64 bd 8d f3 cc 3d
       -0.15569738 -0.010342714 -0.0557993 0.10007391
000240 4f 9b 80 bd ca 45 12 be 08 52 15 bc 11 c5 19 bc
       -0.06279623 -0.14284435 -0.009113796 -0.009385363
000250 fb 65 22 bd 33 93 58 bd 25 c0 7c 3d 42 cf d3 3d
       -0.039648037 -0.052874755 0.06170668 0.10342266
000260 50 27 c6 3c c6 fe bc bd 8d f9 e3 ba 6f 0d 63 3d
       0.024188668 -0.09228282 -0.0017393098 0.055432733
000270 c8 3d e0 bb b8 04 ee 3a 26 80 89 3d 86 11 50 3c
       -0.0068433024 0.0018159365 0.067138955 0.01269949
000280 0c 74 9a bd ea 18 ba 3d a5 c6 95 bd 4b c9 a9 bd
       -0.075416654 0.09086783 -0.07313279 -0.08290347
000290 f7 3a 02 3e ef bb ca be 78 e3 bf bd 8a 55 f6 3d
       0.12717806 -0.39596507 -0.09369558 0.12028034
0002a0 a0 66 03 bd bc 8f a5 3d 30 27 16 be 3d b3 25 be
       -0.032080293 0.08084056 -0.14663386 -0.16181655
0002b0 0e 48 12 bc 4a 6c 3b bd c9 1a 64 3c 4e c4 48 bb
       -0.008928312 -0.04575757 0.013922402 -0.0030634585
0002c0 f1 9d a3 3d 5e ca ad 3d 9a cf 5a 3d 9c 7f 1c b9
       0.07989109 0.08485864 0.05342064 -0.00014924858
0002d0 95 56 09 3e f8 cb ea 3c 54 83 b9 3d 6f 55 d3 bd
       0.13411935 0.028661713 0.09058252 -0.103190295
0002e0 af c0 37 be 64 24 13 be 9f 7b 6f be 64 73 ea bd
       -0.17944597 -0.1436935 -0.23387001 -0.1144779
0002f0 2d 52 03 3e 99 5b 36 3c a5 a4 d7 3d 51 6b d3 3d
       0.12824316 0.011130237 0.1052945 0.10323203
000300 c4 2c 10 be 30 2e 07 bc 76 3f 96 bb 9b 13 89 3d
       -0.14079577 -0.008250758 -0.004585202 0.066931926
000310 39 30 51 bd 36 88 10 3d 3a 70 bc 3d be 83 b6 3d
       -0.05107138 0.03528615 0.09201093 0.089118466
000320 a4 15 d9 3c b5 c9 ec bc 3c bc 3c 3b 82 3d e2 3c
       0.026499577 -0.028904775 0.002879872 0.02761722
000330 cd 40 ac bd 6c 31 f9 3d ec 78 b9 bd de ef 3e 3d
       -0.08410797 0.121676296 -0.09056267 0.046615474
000340 a2 9e 5c bd 1f 0a a1 3d dd 74 9b 3d 21 67 09 3e
       -0.05386222 0.078632586 0.07590649 0.13418247
000350 17 52 8b bd cb 88 e5 bd e8 35 d5 bd 52 5b b9 3d
       -0.06802767 -0.11207732 -0.104106724 0.09050621
000360 22 b1 d5 3d 21 f4 4f 3c 3f 9c f0 bc f1 e8 89 3d
       0.10434176 0.012692482 -0.029371379 0.06733883
000370 10 0b 04 bb 75 7e 75 3d 86 e2 24 bd 33 82 4f 3e
       -0.0020148195 0.059935052 -0.040255092 0.20264511
000380 25 58 ac 3d c2 7d 12 be 1a 0b 2b be 59 5d 1d be
       0.0841525 -0.14305785 -0.16703454 -0.1536764
000390 af 54 af bb 58 5a 3d bd f0 94 96 3d 35 a1 65 bd
       -0.0053506712 -0.046228737 0.07352626 -0.056061942
0003a0 48 48 8c 3d ea f4 08 be 08 0c a9 bc b1 1f 64 3d
       0.06849724 -0.13374677 -0.02063562 0.055694286
0003b0 1f 5b 2c be b7 f7 a0 3d f4 fa 3e 3d a9 1c 85 bb
       -0.16831635 0.07859748 0.046626046 -0.0040622544

module.fclayer_001.bias f4 [2]
000000 2c bb 7e bd 85 bf 92 3d
       -0.06219022 0.07165436

momentum_buffer f4 [80, 40, 2, 2, 2]
000000 e3 8a f2 3c 97 24 4a be 3a b8 00 3e f9 a0 9b be
       0.029607242 -0.1974052 0.12570277 -0.3039625
000010 d7 36 00 3d de b9 c1 bd 45 67 04 be e4 38 46 bd
       0.0313023 -0.094592795 -0.12930019 -0.0483941
000020 d0 8b b4 be 5b aa b0 bd 89 c0 6a be 5b a0 02 3d
       -0.35262918 -0.08626243 -0.22925009 0.03189121
000030 98 aa 26 be 3c 3e 5b 3d 2e 58 b9 be d3 55 2c bc
       -0.16276014 0.05352615 -0.36200088 -0.010518509
000040 03 33 a6 3d 4f 8e 9c 3d fd 67 43 3e 77 fe b0 3d
       0.081151985 0.07644331 0.19082637 0.08642285
000050 72 e9 a3 3c 21 77 69 bb 0a 4b 96 3c 8c bd 06 3e
       0.020008776 -0.0035623985 0.018346328 0.13158244
000060 73 d9 c7 be 26 87 0a 3e 7e 9f 3f be c8 4d 48 3e
       -0.39033088 0.13528118 -0.18713185 0.19560921
000070 77 24 3b 3e 7f 38 12 3f f2 d8 38 be 87 4e 3d 3e
       0.18275629 0.57117456 -0.18051508 0.18486987
000080 69 17 2e 3e d4 79 71 3e 44 c0 17 3d 0a b8 e8 bd
       0.17001118 0.2358163 0.037048593 -0.11363228
000090 b9 3d dd 3b 92 23 f5 bd 80 68 b0 b9 ce 21 cb be
       0.0067517427 -0.11969675 -0.00033647195 -0.39674228
0000a0 05 25 a6 3e 0d 72 42 3e ce 95 06 bd b0 b1 50 3e
       0.3245012 0.1898882 -0.03285771 0.20380282
0000b0 a6 9a 57 bd 6c 90 ca 3e 5a 22 8d be a8 3e 07 3e
       -0.05263772 0.3956331 -0.2756527 0.13207495
0000c0 33 9a 1b be da 48 ab bd cb 50 8e be 16 17 3a be
       -0.15195541 -0.08363505 -0.27796015 -0.18172869
0000d0 04 6a f9 3c 68 d5 07 be 84 16 84 3c b3 ef ae be
       0.03044606 -0.13265002 0.016124018 -0.3416725
0000e0 3b 6d 4c 3c 14 57 96 3e be a6 73 3c 56 7e 68 3e
       0.012477214 0.2936331 0.014871297 0.22704443
0000f0 e3 5c a3 3c 52 b4 12 3f cd 5d 66 be 56 c4 4f 3e
       0.019941753 0.57306397 -0.2249672 0.2028974
000100 dd 18 8c 3e 3e 9b a1 3d 36 3b ab 3e 7a 58 9f be
       0.2736272 0.07890938 0.33443612 -0.3112219
000110 4e 5a 3e 3e 64 da eb bc d3 f3 c8 be dd 29 79 be
       0.18589136 -0.02879066 -0.39248523 -0.24332376
000120 d3 a1 0e bf 0c 25 6c be 8c cd ba be b2 1e aa bd
       -0.55715674 -0.23061007 -0.36484945 -0.08306636
000130 a1 9c a6 be a8 d6 7b be ba 86 dd be 20 47 f7 bd
       -0.32541373 -0.24593604 -0.4326685 -0.12074113
000140 f1 04 4f 3d cf 8e ce 3d e6 35 6e bc 2b c8 b1 bc
       0.050541822 0.10085832 -0.014539218 -0.021701893
000150 c6 65 34 3d c8 71 a6 bd 30 9b 65 3e 00 f6 8c bb
       0.04404237 -0.08127171 0.2242248 -0.0043017864
000160 0a 57 c6 be c2 08 9c 3d 44 94 78 be 6d 09 8d be
       -0.3873828 0.07618858 -0.24275309 -0.27546254
000170 83 20 ab 3e 0c ee 02 3f e7 c5 4f be ec 45 a9 3d
       0.33423242 0.5114448 -0.20290338 0.0826529
000180 64 16 33 3e 5e 9c 4b 3e 46 93 04 be 8b 3c d4 3e
       0.1748901 0.19883868 -0.12946805 0.4145244
000190 b6 c7 49 3d 0e 3f 9a bc 6d 80 ba 3e d5 8b 88 3e
       0.049262725 -0.018828895 0.36426106 0.26669183
0001a0 23 35 29 be d0 22 6d 3e 5c 33 18 be 72 6e 55 3d
       -0.16524176 0.23157811 -0.14863342 0.052107282
0001b0 a3 6f 62 3d da 45 ef 3e 5d d1 8e be 4d 8a 92 3d
       0.055282246 0.4673298 -0.27894107 0.07155285
0001c0 1e 74 f0 3c 55 54 20 be c6 0b 3d 3c 52 f9 ec be
       0.029352244 -0.1565717 0.011538452 -0.46283966
0001d0 58 90 85 3d 88 9c d8 bd e6 5a 22 be e6 28 ee bd
       0.06521672 -0.10576731 -0.15854988 -0.116288945
0001e0 9b fd 14 bf f6 b1 17 3e cc 60 bf bd a8 6a bf 3e
       -0.5819947 0.1481398 -0.093446344 0.3738606
0001f0 b2 50 34 bd 95 eb f5 3e 0a 75 89 be c8 79 9c 3e
       -0.04402227 0.48031297 -0.26847106 0.30561662
000200 8d 8c 22 3e 39 c2 01 3f c9 1b 19 3e 53 e9 87 bc
       0.15873928 0.50686985 0.14952005 -0.01659075
000210 e9 54 62 3d 22 e9 b1 3d 28 2d dd bb 2e a4 ab be
       0.055256758 0.08687045 -0.006749768 -0.33523697
000220 c6 48 44 bc 5a f6 3e bd 32 5c 69 be dc 7d a0 bd
       -0.011980241 -0.046621658 -0.22789076 -0.07836506
000230 b1 ea a4 bd ba 46 1e 3e 64 5e fa be 12 32 2c be
       -0.08052576 0.15456668 -0.4890014 -0.16815975
000240 83 c6 c0 3d 1c 39 49 bd 85 ec 8e 3e 57 30 2b be
       0.09412863 -0.04912673 0.27914825 -0.16717659
000250 8a 64 1c 3e 9c d1 00 bd d2 25 b6 be f1 5f 8b bd
       0.15272728 -0.0314499 -0.3557573 -0.06805409
000260 c0 85 0e bf fd a9 f2 bd 9e 18 55 3d da 5a 74 3e
       -0.55672836 -0.11848829 0.05202543 0.23862782
000270 aa ec 91 be bc 25 73 be 81 d9 24 3e 63 9b 8b 3e
       -0.28500873 -0.23744863 0.16098596 0.27266988
000280 a5 d3 25 3e 4e 0d a2 3b 9d 21 b1 3e ee b9 56 be
       0.16194017 0.0049454337 0.34595957 -0.20969364
000290 eb ff 45 3e 3f 6f 71 3c a9 77 b8 be fb 58 59 be
       0.19335906 0.014735996 -0.36028793 -0.2122535
0002a0 a4 4c ad be 03 bb 3c 3e 42 8b 58 3e ae 62 e2 3e
       -0.33847535 0.18430714 0.21146873 0.44215912
0002b0 b1 d8 5d be 5d 35 3b be 37 ab 02 3f 88 ac 9a 3e
       -0.21664692 -0.18282075 0.51042503 0.30209756
0002c0 e2 0a 04 3d 0c 12 50 3d 97 2d b3 bb ea 1c af 3c
       0.03223694 0.05079846 -0.005468081 0.021376092
0002d0 0c f9 41 bd c7 f9 eb bd 5c b2 7c bd 05 a6 23 be
       -0.04735665 -0.115222506 -0.061693534 -0.159813
0002e0 cf b1 03 bf 80 09 b7 3d 28 f9 8d be 70 8b 0b 3e
       -0.5144319 0.08937359 -0.27729154 0.1362741
0002f0 43 0a 99 3c 88 72 f4 3e 6c da 75 be a1 ff 3a 3e
       0.018681651 0.4774363 -0.24009103 0.18261577
000300 39 54 8c 3d 09 1d 0b 3e 89 88 96 3e 8a 0b e0 bd
       0.06852002 0.13585295 0.29401043 -0.10939701
000310 3b d2 9d 3d 01 80 32 3d 4e 15 81 be 87 b5 3d be
       0.07706114 0.043579105 -0.25211567 -0.18526278
000320 ab 6c 0c bf d4 fa 18 3e be ed 2c bd 3a 2d 9b 3e
       -0.54853314 0.14939433 -0.042218916 0.30307943
000330 4a f3 58 be 91 32 a7 be e8 65 a1 3d 3d 4f e4 3d
       -0.21186557 -0.32655767 0.07880765 0.11147926
000340 4b 1d 08 3e 5e 48 8e 3d d2 23 b6 3e 1e 84 1b be
       0.13292424 0.06947397 0.35574204 -0.15187117
000350 b6 f7 4b 3e 95 0c ec 3c fc a1 9a be c8 e3 f5 bd
       0.19918713 0.028814593 -0.3020171 -0.120063365
000360 8d 53 28 3f 54 fd d8 3e 69 bd 38 3e 81 44 a6 3e
       0.6575249 0.42380774 0.18041004 0.3247414
000370 62 61 88 be bd d7 50 be 60 70 eb 3d 1a da 44 3d
       -0.26636797 -0.20394798 0.11496043 0.04805956
000380 c0 f4 8e 3d 9f 42 7f bd 33 af ab 3e 26 0d 9c 3b
       0.06980276 -0.062319394 0.33532104 0.0047623096
000390 15 ff 3a 3e 06 81 fe bc 8c eb 26 3e 82 11 82 3e
       0.18261369 -0.031067383 0.16300792 0.25403982
0003a0 5b 99 48 bf 77 87 9b 3d 20 c0 57 bd 6e 8d 58 3e
       -0.78359 0.07594197 -0.05267346 0.21147701
0003b0 27 94 96 bd dc 7d fd 3e b9 01 11 be 50 d9 92 3e
       -0.073524766 0.49510086 -0.14160813 0.2868142
0003c0 d7 c4 e2 bc 97 ea 47 be db e6 58 3d 61 ac 8b be
       -0.027681751 -0.19523083 0.052954536 -0.27279952
0003d0 4b 33 a2 3c 3b 90 92 bd 02 0c 8e 3d 3a 2e 57 3d
       0.019799849 -0.07156416 0.06935884 0.05253432
0003e0 59 53 ba be 1a 05 87 bd 5b 87 8c be c0 e8 e5 bd
       -0.36391714 -0.0659277 -0.27447018 -0.11226034
0003f0 72 72 11 be f9 69 bc 3d b1 78 01 bf 85 21 0a be
       -0.14203814 0.091999 -0.50574785 -0.13489349

momentum_buffer f4 [80]
000000 f5 0f c3 be 51 eb 7d 3e dd 70 62 bf 64 2b d9 be
       -0.38098112 0.24796797 -0.88453466 -0.42415917
000010 7c d7 37 be f8 9b 74 be c4 3f d5 3e fd b3 54 bf
       -0.17953295 -0.23887622 0.41650212 -0.8308714
000020 17 6a 10 3f dd 2a f3 be 90 ff 1d 3f e3 c1 b9 be
       0.5641188 -0.4749364 0.6171808 -0.36280736
000030 fc 21 c6 bb bf da bb be 56 27 3d 3e f4 49 11 bb
       -0.0060465317 -0.36690328 0.18472037 -0.0022169324
000040 97 ab 05 bd 67 d5 2b bf 1c ce 30 3e f5 7d 45 be
       -0.032634344 -0.671225 0.17266124 -0.1928633
000050 e1 66 0e bf 78 21 74 bc 51 e8 3e be 62 af 3b 3f
       -0.5562573 -0.014900558 -0.18643309 0.7331449
000060 4a ed 44 bf 76 7d 07 be 2d 16 8b 3f 54 d6 40 bf
       -0.76924574 -0.13231453 1.0866143 -0.7532704
000070 4e de a4 3f 3e c1 67 bf d8 bb 50 bf 3d b9 92 be
       1.2880342 -0.9052924 -0.81536627 -0.2865695
000080 df 00 12 3f 21 08 1b 3f d9 82 08 3f af a3 0c bf
       0.5703258 0.6055928 0.5332466 -0.5493726
000090 d8 f5 1e be 3c 98 c5 be b0 d1 de 3a 32 b1 88 3e
       -0.1552347 -0.38592708 0.0016999748 0.2669769
0000a0 cf 79 c6 bd 00 99 9e bf c4 9d ea 3e e3 1b 5c 3e
       -0.09691202 -1.2390442 0.4582349 0.21495013
0000b0 26 df ae 3f e4 dd 90 be 60 8b 2d 3c 06 4b 98 bd
       1.366185 -0.2829429 0.010592312 -0.074361846
0000c0 6c 57 ea 3e 90 43 5c bf 2c 2a be 3e df c6 6a be
       0.45769823 -0.8604059 0.3714155 -0.22927426
0000d0 36 43 3e be 30 a3 52 be db 01 6f bf 36 83 f0 be
       -0.18580326 -0.20570064 -0.93362206 -0.46975106
0000e0 0c a1 e2 3d 09 f6 c7 3d e0 e9 14 3c dc 9e 22 be
       0.110658735 0.09763724 0.009088963 -0.15880913
0000f0 c8 f6 56 bd 3b 83 4a bf 66 2a 88 3e 70 9e 7e 3e
       -0.052481443 -0.7910649 0.26594847 0.24865127
000100 8a d0 2d 3f 7e f2 03 be 88 8e b2 3c b0 75 7d 3e
       0.6789633 -0.12885472 0.02179648 0.24751925
000110 06 b1 1e bf 42 a8 b4 3e 69 91 6f bf 16 33 cf be
       -0.61988866 0.3528462 -0.93581253 -0.40468663
000120 d4 e1 08 be 5f a7 a2 3d 6d 5c 8c 3d 0c cd 94 bf
       -0.13367397 0.0794208 0.06853566 -1.1625075
000130 06 6f e8 bf e6 d3 97 3e 1c 34 19 be 71 ee 38 3f
       -1.8158882 0.29653853 -0.14961284 0.7223883
